…
    "papermill": {
     "duration": 2.622605,
     "end_time": "2022-02-05T16:11:19.679345",
     "exception": false,
     "start_time": "2022-02-05T16:11:17.056740",
     "status": "completed"
    },
    "tags": []
   },
   "outputs": [
    {
     "name": "stdout",
     "output_type": "stream",
     "text": [
      "Model: \"sequential\"\n",
      "_________________________________________________________________\n",
      "Layer (type)                 Output Shape              Param #   \n",
      "=================================================================\n",
      "conv2d (Conv2D)              (None, 148, 148, 32)      896       \n",
      "_________________________________________________________________\n",
      "max_pooling2d (MaxPooling2D) (None, 74, 74, 32)        0         \n",
      "_________________________________________________________________\n",
      "conv2d_1 (Conv2D)            (None, 72, 72, 64)        18496     \n",
      "_________________________________________________________________\n",
      "max_pooling2d_1 (MaxPooling2 (None, 36, 36, 64)        0         \n",
      "_________________________________________________________________\n",
      "conv2d_2 (Conv2D)            (None, 34, 34, 128)       73856     \n",
      "_________________________________________________________________\n",
      "max_pooling2d_2 (MaxPooling2 (None, 17, 17, 128)       0         \n",
      "_________________________________________________________________\n",
      "flatten (Flatten)            (None, 36992)             0         \n",
      "_________________________________________________________________\n",
      "dense (Dense)                (None, 64)                2367552   \n",
      "_________________________________________________________________\n",
      "dense_1 (Dense)              (None, 2)                 130       \n",
      "=================================================================\n",
      "Total params: 2,460,930\n",
      "Trainable params: 2,460,930\n",
      "Non-trainable params: 0\n",
      "_________________________________________________________________\n"
     ]
    },
    {
     "name": "stderr",
     "output_type": "stream",
     "text": [
      "2022-02-05 16:11:17.145256: I tensorflow/stream_executor/cuda/cuda_gpu_executor.cc:937] successful NUMA node read from SysFS had negative value (-1), but there must be at least one NUMA node, so returning NUMA node zero\n",
…
